…
    - 1000
    - 1100
    - 1200
  DETECTIONS_PER_IMAGE: 100
  EVAL_PERIOD: 3000
  EXPECTED_RESULTS: []
  KEYPOINT_OKS_SIGMAS: []
  PRECISE_BN:
    ENABLED: false
    NUM_ITER: 200
VERSION: 2
VIS_PERIOD: 0

[09/02 23:31:16] detectron2 INFO: Full config saved to /tsi/hi-paris/GB/segmentation/results/In_vocab/cl_008_3000_19/config.yaml
[09/02 23:31:16] d2.utils.env INFO: Using a generated random seed 17763711
[09/02 23:31:28] d2.engine.defaults INFO: Model:
FCCLIP(
  (backbone): CLIP(
    (clip_model): CLIP(
      (visual): TimmModel(
        (trunk): ConvNeXt(
          (stem): Sequential(
            (0): Conv2d(3, 192, kernel_size=(4, 4), stride=(4, 4))
            (1): LayerNorm2d((192,), eps=1e-06, elementwise_affine=True)
          )
          (stages): Sequential(
            (0): ConvNeXtStage(
              (downsample): Identity()
              (blocks): Sequential(
                (0): ConvNeXtBlock(
                  (conv_dw): Conv2d(192, 192, kernel_size=(7, 7), stride=(1, 1), padding=(3, 3), groups=192)
                  (norm): LayerNorm((192,), eps=1e-06, elementwise_affine=True)
                  (mlp): Mlp(
                    (fc1): Linear(in_features=192, out_features=768, bias=True)
                    (act): GELU()
                    (drop1): Dropout(p=0.0, inplace=False)
                    (norm): Identity()
                    (fc2): Linear(in_features=768, out_features=192, bias=True)
                    (drop2): Dropout(p=0.0, inplace=False)
                  )
                  (shortcut): Identity()
                  (drop_path): Identity()
                )
                (1): ConvNeXtBlock(
                  (conv_dw): Conv2d(192, 192, kernel_size=(7, 7), stride=(1, 1), padding=(3, 3), groups=192)
                  (norm): LayerNorm((192,), eps=1e-06, elementwise_affine=True)
                  (mlp): Mlp(
                    (fc1): Linear(in_features=192, out_features=768, bias=True)
                    (act): GELU()
                    (drop1): Dropout(p=0.0, inplace=False)
                    (norm): Identity()
                    (fc2): Linear(in_features=768, out_features=192, bias=True)
                    (drop2): Dropout(p=0.0, inplace=False)
                  )
                  (shortcut): Identity()
                  (drop_path): DropPath(drop_prob=0.003)
                )
                (2): ConvNeXtBlock(
                  (conv_dw): Conv2d(192, 192, kernel_size=(7, 7), stride=(1, 1), padding=(3, 3), groups=192)
                  (norm): LayerNorm((192,), eps=1e-06, elementwise_affine=True)
                  (mlp): Mlp(
                    (fc1): Linear(in_features=192, out_features=768, bias=True)
                    (act): GELU()
                    (drop1): Dropout(p=0.0, inplace=False)
                    (norm): Identity()
                    (fc2): Linear(in_features=768, out_features=192, bias=True)
                    (drop2): Dropout(p=0.0, inplace=False)
                  )
                  (shortcut): Identity()
                  (drop_path): DropPath(drop_prob=0.006)
                )
              )
            )
            (1): ConvNeXtStage(
              (downsample): Sequential(
                (0): LayerNorm2d((192,), eps=1e-06, elementwise_affine=True)
                (1): Conv2d(192, 384, kernel_size=(2, 2), stride=(2, 2))
              )
              (blocks): Sequential(
                (0): ConvNeXtBlock(
                  (conv_dw): Conv2d(384, 384, kernel_size=(7, 7), stride=(1, 1), padding=(3, 3), groups=384)
                  (norm): LayerNorm((384,), eps=1e-06, elementwise_affine=True)
                  (mlp): Mlp(
                    (fc1): Linear(in_features=384, out_features=1536, bias=True)
                    (act): GELU()
                    (drop1): Dropout(p=0.0, inplace=False)
                    (norm): Identity()
                    (fc2): Linear(in_features=1536, out_features=384, bias=True)
                    (drop2): Dropout(p=0.0, inplace=False)
                  )
                  (shortcut): Identity()
                  (drop_path): DropPath(drop_prob=0.009)
                )
                (1): ConvNeXtBlock(
                  (conv_dw): Conv2d(384, 384, kernel_size=(7, 7), stride=(1, 1), padding=(3, 3), groups=384)
                  (norm): LayerNorm((384,), eps=1e-06, elementwise_affine=True)
                  (mlp): Mlp(
                    (fc1): Linear(in_features=384, out_features=1536, bias=True)
                    (act): GELU()
                    (drop1): Dropout(p=0.0, inplace=False)
                    (norm): Identity()
                    (fc2): Linear(in_features=1536, out_features=384, bias=True)
                    (drop2): Dropout(p=0.0, inplace=False)
                  )
                  (shortcut): Identity()
                  (drop_path): DropPath(drop_prob=0.011)
                )
                (2): ConvNeXtBlock(
                  (conv_dw): Conv2d(384, 384, kernel_size=(7, 7), stride=(1, 1), padding=(3, 3), groups=384)
                  (norm): LayerNorm((384,), eps=1e-06, elementwise_affine=True)
                  (mlp): Mlp(
                    (fc1): Linear(in_features=384, out_features=1536, bias=True)
                    (act): GELU()
                    (drop1): Dropout(p=0.0, inplace=False)
                    (norm): Identity()
                    (fc2): Linear(in_features=1536, out_features=384, bias=True)
                    (drop2): Dropout(p=0.0, inplace=False)
                  )
                  (shortcut): Identity()
                  (drop_path): DropPath(drop_prob=0.014)
                )
              )
            )
            (2): ConvNeXtStage(
              (downsample): Sequential(
                (0): LayerNorm2d((384,), eps=1e-06, elementwise_affine=True)
                (1): Conv2d(384, 768, kernel_size=(2, 2), stride=(2, 2))
              )
              (blocks): Sequential(
                (0): ConvNeXtBlock(
                  (conv_dw): Conv2d(768, 768, kernel_size=(7, 7), stride=(1, 1), padding=(3, 3), groups=768)
                  (norm): LayerNorm((768,), eps=1e-06, elementwise_affine=True)
                  (mlp): Mlp(
                    (fc1): Linear(in_features=768, out_features=3072, bias=True)
                    (act): GELU()
                    (drop1): Dropout(p=0.0, inplace=False)
                    (norm): Identity()
                    (fc2): Linear(in_features=3072, out_features=768, bias=True)
                    (drop2): Dropout(p=0.0, inplace=False)
                  )
                  (shortcut): Identity()
                  (drop_path): DropPath(drop_prob=0.017)
                )
                (1): ConvNeXtBlock(
                  (conv_dw): Conv2d(768, 768, kernel_size=(7, 7), stride=(1, 1), padding=(3, 3), groups=768)
                  (norm): LayerNorm((768,), eps=1e-06, elementwise_affine=True)
                  (mlp): Mlp(
                    (fc1): Linear(in_features=768, out_features=3072, bias=True)
                    (act): GELU()
                    (drop1): Dropout(p=0.0, inplace=False)
                    (norm): Identity()
                    (fc2): Linear(in_features=3072, out_features=768, bias=True)
                    (drop2): Dropout(p=0.0, inplace=False)
                  )
                  (shortcut): Identity()
                  (drop_path): DropPath(drop_prob=0.020)
                )
                (2): ConvNeXtBlock(
                  (conv_dw): Conv2d(768, 768, kernel_size=(7, 7), stride=(1, 1), padding=(3, 3), groups=768)
                  (norm): LayerNorm((768,), eps=1e-06, elementwise_affine=True)
                  (mlp): Mlp(
                    (fc1): Linear(in_features=768, out_features=3072, bias=True)
                    (act): GELU()
                    (drop1): Dropout(p=0.0, inplace=False)
                    (norm): Identity()
                    (fc2): Linear(in_features=3072, out_features=768, bias=True)
                    (drop2): Dropout(p=0.0, inplace=False)
                  )
                  (shortcut): Identity()
                  (drop_path): DropPath(drop_prob=0.023)
                )
                (3): ConvNeXtBlock(
                  (conv_dw): Conv2d(768, 768, kernel_size=(7, 7), stride=(1, 1), padding=(3, 3), groups=768)
                  (norm): LayerNorm((768,), eps=1e-06, elementwise_affine=True)
                  (mlp): Mlp(
                    (fc1): Linear(in_features=768, out_features=3072, bias=True)
                    (act): GELU()
                    (drop1): Dropout(p=0.0, inplace=False)
                    (norm): Identity()
                    (fc2): Linear(in_features=3072, out_features=768, bias=True)
                    (drop2): Dropout(p=0.0, inplace=False)
                  )
                  (shortcut): Identity()
                  (drop_path): DropPath(drop_prob=0.026)
                )
                (4): ConvNeXtBlock(
                  (conv_dw): Conv2d(768, 768, kernel_size=(7, 7), stride=(1, 1), padding=(3, 3), groups=768)
                  (norm): LayerNorm((768,), eps=1e-06, elementwise_affine=True)
                  (mlp): Mlp(
                    (fc1): Linear(in_features=768, out_features=3072, bias=True)
                    (act): GELU()
                    (drop1): Dropout(p=0.0, inplace=False)
                    (norm): Identity()
                    (fc2): Linear(in_features=3072, out_features=768, bias=True)
                    (drop2): Dropout(p=0.0, inplace=False)
                  )
                  (shortcut): Identity()
                  (drop_path): DropPath(drop_prob=0.029)
                )
                (5): ConvNeXtBlock(
                  (conv_dw): Conv2d(768, 768, kernel_size=(7, 7), stride=(1, 1), padding=(3, 3), groups=768)
                  (norm): LayerNorm((768,), eps=1e-06, elementwise_affine=True)
                  (mlp): Mlp(
                    (fc1): Linear(in_features=768, out_features=3072, bias=True)
                    (act): GELU()
                    (drop1): Dropout(p=0.0, inplace=False)
                    (norm): Identity()
                    (fc2): Linear(in_features=3072, out_features=768, bias=True)
                    (drop2): Dropout(p=0.0, inplace=False)
                  )
                  (shortcut): Identity()
                  (drop_path): DropPath(drop_prob=0.031)
                )
                (6): ConvNeXtBlock(
                  (conv_dw): Conv2d(768, 768, kernel_size=(7, 7), stride=(1, 1), padding=(3, 3), groups=768)
                  (norm): LayerNorm((768,), eps=1e-06, elementwise_affine=True)
                  (mlp): Mlp(
                    (fc1): Linear(in_features=768, out_features=3072, bias=True)
                    (act): GELU()
                    (drop1): Dropout(p=0.0, inplace=False)
                    (norm): Identity()
                    (fc2): Linear(in_features=3072, out_features=768, bias=True)
                    (drop2): Dropout(p=0.0, inplace=False)
                  )
                  (shortcut): Identity()
                  (drop_path): DropPath(drop_prob=0.034)
                )
                (7): ConvNeXtBlock(
                  (conv_dw): Conv2d(768, 768, kernel_size=(7, 7), stride=(1, 1), padding=(3, 3), groups=768)
                  (norm): LayerNorm((768,), eps=1e-06, elementwise_affine=True)
                  (mlp): Mlp(
                    (fc1): Linear(in_features=768, out_features=3072, bias=True)
                    (act): GELU()
                    (drop1): Dropout(p=0.0, inplace=False)
                    (norm): Identity()
                    (fc2): Linear(in_features=3072, out_features=768, bias=True)
                    (drop2): Dropout(p=0.0, inplace=False)
                  )
                  (shortcut): Identity()
                  (drop_path): DropPath(drop_prob=0.037)
                )
                (8): ConvNeXtBlock(
                  (conv_dw): Conv2d(768, 768, kernel_size=(7, 7), stride=(1, 1), padding=(3, 3), groups=768)
                  (norm): LayerNorm((768,), eps=1e-06, elementwise_affine=True)
                  (mlp): Mlp(
                    (fc1): Linear(in_features=768, out_features=3072, bias=True)
                    (act): GELU()
                    (drop1): Dropout(p=0.0, inplace=False)
                    (norm): Identity()
                    (fc2): Linear(in_features=3072, out_features=768, bias=True)
                    (drop2): Dropout(p=0.0, inplace=False)
                  )
                  (shortcut): Identity()
                  (drop_path): DropPath(drop_prob=0.040)
                )
                (9): ConvNeXtBlock(
                  (conv_dw): Conv2d(768, 768, kernel_size=(7, 7), stride=(1, 1), padding=(3, 3), groups=768)
                  (norm): LayerNorm((768,), eps=1e-06, elementwise_affine=True)
                  (mlp): Mlp(
                    (fc1): Linear(in_features=768, out_features=3072, bias=True)
                    (act): GELU()
                    (drop1): Dropout(p=0.0, inplace=False)
                    (norm): Identity()
                    (fc2): Linear(in_features=3072, out_features=768, bias=True)
                    (drop2): Dropout(p=0.0, inplace=False)
                  )
                  (shortcut): Identity()
                  (drop_path): DropPath(drop_prob=0.043)
                )
                (10): ConvNeXtBlock(
                  (conv_dw): Conv2d(768, 768, kernel_size=(7, 7), stride=(1, 1), padding=(3, 3), groups=768)
                  (norm): LayerNorm((768,), eps=1e-06, elementwise_affine=True)
                  (mlp): Mlp(
                    (fc1): Linear(in_features=768, out_features=3072, bias=True)
                    (act): GELU()
                    (drop1): Dropout(p=0.0, inplace=False)
                    (norm): Identity()
                    (fc2): Linear(in_features=3072, out_features=768, bias=True)
                    (drop2): Dropout(p=0.0, inplace=False)
                  )
                  (shortcut): Identity()
                  (drop_path): DropPath(drop_prob=0.046)
                )
                (11): ConvNeXtBlock(
                  (conv_dw): Conv2d(768, 768, kernel_size=(7, 7), stride=(1, 1), padding=(3, 3), groups=768)
                  (norm): LayerNorm((768,), eps=1e-06, elementwise_affine=True)
                  (mlp): Mlp(
                    (fc1): Linear(in_features=768, out_features=3072, bias=True)
                    (act): GELU()
                    (drop1): Dropout(p=0.0, inplace=False)
                    (norm): Identity()
                    (fc2): Linear(in_features=3072, out_features=768, bias=True)
                    (drop2): Dropout(p=0.0, inplace=False)
                  )
                  (shortcut): Identity()
                  (drop_path): DropPath(drop_prob=0.049)
                )
                (12): ConvNeXtBlock(
                  (conv_dw): Conv2d(768, 768, kernel_size=(7, 7), stride=(1, 1), padding=(3, 3), groups=768)
                  (norm): LayerNorm((768,), eps=1e-06, elementwise_affine=True)
                  (mlp): Mlp(
                    (fc1): Linear(in_features=768, out_features=3072, bias=True)
                    (act): GELU()
                    (drop1): Dropout(p=0.0, inplace=False)
                    (norm): Identity()
                    (fc2): Linear(in_features=3072, out_features=768, bias=True)
                    (drop2): Dropout(p=0.0, inplace=False)
                  )
                  (shortcut): Identity()
                  (drop_path): DropPath(drop_prob=0.051)
                )
                (13): ConvNeXtBlock(
                  (conv_dw): Conv2d(768, 768, kernel_size=(7, 7), stride=(1, 1), padding=(3, 3), groups=768)
                  (norm): LayerNorm((768,), eps=1e-06, elementwise_affine=True)
                  (mlp): Mlp(
                    (fc1): Linear(in_features=768, out_features=3072, bias=True)
                    (act): GELU()
                    (drop1): Dropout(p=0.0, inplace=False)
                    (norm): Identity()
                    (fc2): Linear(in_features=3072, out_features=768, bias=True)
                    (drop2): Dropout(p=0.0, inplace=False)
                  )
                  (shortcut): Identity()
                  (drop_path): DropPath(drop_prob=0.054)
                )
                (14): ConvNeXtBlock(
                  (conv_dw): Conv2d(768, 768, kernel_size=(7, 7), stride=(1, 1), padding=(3, 3), groups=768)
                  (norm): LayerNorm((768,), eps=1e-06, elementwise_affine=True)
                  (mlp): Mlp(
                    (fc1): Linear(in_features=768, out_features=3072, bias=True)
                    (act): GELU()
                    (drop1): Dropout(p=0.0, inplace=False)
                    (norm): Identity()
                    (fc2): Linear(in_features=3072, out_features=768, bias=True)
                    (drop2): Dropout(p=0.0, inplace=False)
                  )
                  (shortcut): Identity()
                  (drop_path): DropPath(drop_prob=0.057)
                )
                (15): ConvNeXtBlock(
                  (conv_dw): Conv2d(768, 768, kernel_size=(7, 7), stride=(1, 1), padding=(3, 3), groups=768)
                  (norm): LayerNorm((768,), eps=1e-06, elementwise_affine=True)
                  (mlp): Mlp(
                    (fc1): Linear(in_features=768, out_features=3072, bias=True)
                    (act): GELU()
                    (drop1): Dropout(p=0.0, inplace=False)
                    (norm): Identity()
                    (fc2): Linear(in_features=3072, out_features=768, bias=True)
                    (drop2): Dropout(p=0.0, inplace=False)
                  )
                  (shortcut): Identity()
                  (drop_path): DropPath(drop_prob=0.060)
                )
                (16): ConvNeXtBlock(
                  (conv_dw): Conv2d(768, 768, kernel_size=(7, 7), stride=(1, 1), padding=(3, 3), groups=768)
                  (norm): LayerNorm((768,), eps=1e-06, elementwise_affine=True)
                  (mlp): Mlp(
                    (fc1): Linear(in_features=768, out_features=3072, bias=True)
                    (act): GELU()
                    (drop1): Dropout(p=0.0, inplace=False)
                    (norm): Identity()
                    (fc2): Linear(in_features=3072, out_features=768, bias=True)
                    (drop2): Dropout(p=0.0, inplace=False)
                  )
                  (shortcut): Identity()
                  (drop_path): DropPath(drop_prob=0.063)
                )
                (17): ConvNeXtBlock(
                  (conv_dw): Conv2d(768, 768, kernel_size=(7, 7), stride=(1, 1), padding=(3, 3), groups=768)
                  (norm): LayerNorm((768,), eps=1e-06, elementwise_affine=True)
                  (mlp): Mlp(
                    (fc1): Linear(in_features=768, out_features=3072, bias=True)
                    (act): GELU()
                    (drop1): Dropout(p=0.0, inplace=False)
                    (norm): Identity()
                    (fc2): Linear(in_features=3072, out_features=768, bias=True)
                    (drop2): Dropout(p=0.0, inplace=False)
                  )
                  (shortcut): Identity()
                  (drop_path): DropPath(drop_prob=0.066)
                )
                (18): ConvNeXtBlock(
                  (conv_dw): Conv2d(768, 768, kernel_size=(7, 7), stride=(1, 1), padding=(3, 3), groups=768)
                  (norm): LayerNorm((768,), eps=1e-06, elementwise_affine=True)
                  (mlp): Mlp(
                    (fc1): Linear(in_features=768, out_features=3072, bias=True)
                    (act): GELU()
                    (drop1): Dropout(p=0.0, inplace=False)
                    (norm): Identity()
                    (fc2): Linear(in_features=3072, out_features=768, bias=True)
                    (drop2): Dropout(p=0.0, inplace=False)
                  )
                  (shortcut): Identity()
                  (drop_path): DropPath(drop_prob=0.069)
                )
                (19): ConvNeXtBlock(
                  (conv_dw): Conv2d(768, 768, kernel_size=(7, 7), stride=(1, 1), padding=(3, 3), groups=768)
                  (norm): LayerNorm((768,), eps=1e-06, elementwise_affine=True)
                  (mlp): Mlp(
                    (fc1): Linear(in_features=768, out_features=3072, bias=True)
                    (act): GELU()
                    (drop1): Dropout(p=0.0, inplace=False)
                    (norm): Identity()
                    (fc2): Linear(in_features=3072, out_features=768, bias=True)
                    (drop2): Dropout(p=0.0, inplace=False)
                  )
                  (shortcut): Identity()
                  (drop_path): DropPath(drop_prob=0.071)
                )
                (20): ConvNeXtBlock(
                  (conv_dw): Conv2d(768, 768, kernel_size=(7, 7), stride=(1, 1), padding=(3, 3), groups=768)
                  (norm): LayerNorm((768,), eps=1e-06, elementwise_affine=True)
                  (mlp): Mlp(
                    (fc1): Linear(in_features=768, out_features=3072, bias=True)
                    (act): GELU()
                    (drop1): Dropout(p=0.0, inplace=False)
                    (norm): Identity()
                    (fc2): Linear(in_features=3072, out_features=768, bias=True)
                    (drop2): Dropout(p=0.0, inplace=False)
                  )
                  (shortcut): Identity()
                  (drop_path): DropPath(drop_prob=0.074)
                )
                (21): ConvNeXtBlock(
                  (conv_dw): Conv2d(768, 768, kernel_size=(7, 7), stride=(1, 1), padding=(3, 3), groups=768)
                  (norm): LayerNorm((768,), eps=1e-06, elementwise_affine=True)
                  (mlp): Mlp(
                    (fc1): Linear(in_features=768, out_features=3072, bias=True)
                    (act): GELU()
                    (drop1): Dropout(p=0.0, inplace=False)
                    (norm): Identity()
                    (fc2): Linear(in_features=3072, out_features=768, bias=True)
                    (drop2): Dropout(p=0.0, inplace=False)
                  )
                  (shortcut): Identity()
                  (drop_path): DropPath(drop_prob=0.077)
                )
                (22): ConvNeXtBlock(
                  (conv_dw): Conv2d(768, 768, kernel_size=(7, 7), stride=(1, 1), padding=(3, 3), groups=768)
                  (norm): LayerNorm((768,), eps=1e-06, elementwise_affine=True)
                  (mlp): Mlp(
                    (fc1): Linear(in_features=768, out_features=3072, bias=True)
                    (act): GELU()
                    (drop1): Dropout(p=0.0, inplace=False)
                    (norm): Identity()
                    (fc2): Linear(in_features=3072, out_features=768, bias=True)
                    (drop2): Dropout(p=0.0, inplace=False)
                  )
                  (shortcut): Identity()
                  (drop_path): DropPath(drop_prob=0.080)
                )
                (23): ConvNeXtBlock(
                  (conv_dw): Conv2d(768, 768, kernel_size=(7, 7), stride=(1, 1), padding=(3, 3), groups=768)
                  (norm): LayerNorm((768,), eps=1e-06, elementwise_affine=True)
                  (mlp): Mlp(
                    (fc1): Linear(in_features=768, out_features=3072, bias=True)
                    (act): GELU()
                    (drop1): Dropout(p=0.0, inplace=False)
                    (norm): Identity()
                    (fc2): Linear(in_features=3072, out_features=768, bias=True)
                    (drop2): Dropout(p=0.0, inplace=False)
                  )
                  (shortcut): Identity()
                  (drop_path): DropPath(drop_prob=0.083)
                )
                (24): ConvNeXtBlock(
                  (conv_dw): Conv2d(768, 768, kernel_size=(7, 7), stride=(1, 1), padding=(3, 3), groups=768)
                  (norm): LayerNorm((768,), eps=1e-06, elementwise_affine=True)
                  (mlp): Mlp(
                    (fc1): Linear(in_features=768, out_features=3072, bias=True)
                    (act): GELU()
                    (drop1): Dropout(p=0.0, inplace=False)
                    (norm): Identity()
                    (fc2): Linear(in_features=3072, out_features=768, bias=True)
                    (drop2): Dropout(p=0.0, inplace=False)
                  )
                  (shortcut): Identity()
                  (drop_path): DropPath(drop_prob=0.086)
                )
                (25): ConvNeXtBlock(
                  (conv_dw): Conv2d(768, 768, kernel_size=(7, 7), stride=(1, 1), padding=(3, 3), groups=768)
                  (norm): LayerNorm((768,), eps=1e-06, elementwise_affine=True)
                  (mlp): Mlp(
                    (fc1): Linear(in_features=768, out_features=3072, bias=True)
                    (act): GELU()
                    (drop1): Dropout(p=0.0, inplace=False)
                    (norm): Identity()
                    (fc2): Linear(in_features=3072, out_features=768, bias=True)
                    (drop2): Dropout(p=0.0, inplace=False)
                  )
                  (shortcut): Identity()
                  (drop_path): DropPath(drop_prob=0.089)
                )
                (26): ConvNeXtBlock(
                  (conv_dw): Conv2d(768, 768, kernel_size=(7, 7), stride=(1, 1), padding=(3, 3), groups=768)
                  (norm): LayerNorm((768,), eps=1e-06, elementwise_affine=True)
                  (mlp): Mlp(
                    (fc1): Linear(in_features=768, out_features=3072, bias=True)
                    (act): GELU()
                    (drop1): Dropout(p=0.0, inplace=False)
                    (norm): Identity()
                    (fc2): Linear(in_features=3072, out_features=768, bias=True)
                    (drop2): Dropout(p=0.0, inplace=False)
                  )
                  (shortcut): Identity()
                  (drop_path): DropPath(drop_prob=0.091)
                )
              )
            )
            (3): ConvNeXtStage(
              (downsample): Sequential(
                (0): LayerNorm2d((768,), eps=1e-06, elementwise_affine=True)
                (1): Conv2d(768, 1536, kernel_size=(2, 2), stride=(2, 2))
              )
              (blocks): Sequential(
                (0): ConvNeXtBlock(
                  (conv_dw): Conv2d(1536, 1536, kernel_size=(7, 7), stride=(1, 1), padding=(3, 3), groups=1536)
                  (norm): LayerNorm((1536,), eps=1e-06, elementwise_affine=True)
                  (mlp): Mlp(
                    (fc1): Linear(in_features=1536, out_features=6144, bias=True)
                    (act): GELU()
                    (drop1): Dropout(p=0.0, inplace=False)
                    (norm): Identity()
                    (fc2): Linear(in_features=6144, out_features=1536, bias=True)
                    (drop2): Dropout(p=0.0, inplace=False)
                  )
                  (shortcut): Identity()
                  (drop_path): DropPath(drop_prob=0.094)
                )
                (1): ConvNeXtBlock(
                  (conv_dw): Conv2d(1536, 1536, kernel_size=(7, 7), stride=(1, 1), padding=(3, 3), groups=1536)
                  (norm): LayerNorm((1536,), eps=1e-06, elementwise_affine=True)
                  (mlp): Mlp(
                    (fc1): Linear(in_features=1536, out_features=6144, bias=True)
                    (act): GELU()
                    (drop1): Dropout(p=0.0, inplace=False)
                    (norm): Identity()
                    (fc2): Linear(in_features=6144, out_features=1536, bias=True)
                    (drop2): Dropout(p=0.0, inplace=False)
                  )
                  (shortcut): Identity()
                  (drop_path): DropPath(drop_prob=0.097)
                )
                (2): ConvNeXtBlock(
                  (conv_dw): Conv2d(1536, 1536, kernel_size=(7, 7), stride=(1, 1), padding=(3, 3), groups=1536)
                  (norm): LayerNorm((1536,), eps=1e-06, elementwise_affine=True)
                  (mlp): Mlp(
                    (fc1): Linear(in_features=1536, out_features=6144, bias=True)
                    (act): GELU()
                    (drop1): Dropout(p=0.0, inplace=False)
                    (norm): Identity()
                    (fc2): Linear(in_features=6144, out_features=1536, bias=True)
                    (drop2): Dropout(p=0.0, inplace=False)
                  )
                  (shortcut): Identity()
                  (drop_path): DropPath(drop_prob=0.100)
                )
              )
            )
          )
          (norm_pre): Identity()
          (head): NormMlpClassifierHead(
            (global_pool): SelectAdaptivePool2d(pool_type=avg, flatten=Identity())
            (norm): LayerNorm2d((1536,), eps=1e-06, elementwise_affine=True)
            (flatten): Flatten(start_dim=1, end_dim=-1)
            (pre_logits): Identity()
            (drop): Dropout(p=0.0, inplace=False)
            (fc): Identity()
          )
        )
        (head): Sequential(
          (mlp): Mlp(
            (fc1): Linear(in_features=1536, out_features=1536, bias=True)
            (act): GELU(approximate='none')
            (drop1): Dropout(p=0.0, inplace=False)
            (norm): Identity()
            (fc2): Linear(in_features=1536, out_features=768, bias=False)
            (drop2): Dropout(p=0, inplace=False)
          )
        )
      )
      (transformer): Transformer(
        (resblocks): ModuleList(
          (0-15): 16 x ResidualAttentionBlock(
            (ln_1): LayerNorm((768,), eps=1e-05, elementwise_affine=True)
            (attn): MultiheadAttention(
              (out_proj): NonDynamicallyQuantizableLinear(in_features=768, out_features=768, bias=True)
            )
            (ls_1): Identity()
            (ln_2): LayerNorm((768,), eps=1e-05, elementwise_affine=True)
            (mlp): Sequential(
              (c_fc): Linear(in_features=768, out_features=3072, bias=True)
              (gelu): GELU(approximate='none')
              (c_proj): Linear(in_features=3072, out_features=768, bias=True)
            )
            (ls_2): Identity()
          )
        )
      )
      (token_embedding): Embedding(49408, 768)
      (ln_final): LayerNorm((768,), eps=1e-05, elementwise_affine=True)
    )
  )
  (sem_seg_head): FCCLIPHead(
    (pixel_decoder): MSDeformAttnPixelDecoder(
      (input_proj): ModuleList(
        (0): Sequential(
          (0): Conv2d(1536, 256, kernel_size=(1, 1), stride=(1, 1))
          (1): GroupNorm(32, 256, eps=1e-05, affine=True)
        )
        (1): Sequential(
          (0): Conv2d(768, 256, kernel_size=(1, 1), stride=(1, 1))
          (1): GroupNorm(32, 256, eps=1e-05, affine=True)
        )
        (2): Sequential(
          (0): Conv2d(384, 256, kernel_size=(1, 1), stride=(1, 1))
          (1): GroupNorm(32, 256, eps=1e-05, affine=True)
        )
      )
      (transformer): MSDeformAttnTransformerEncoderOnly(
        (encoder): MSDeformAttnTransformerEncoder(
          (layers): ModuleList(
            (0-5): 6 x MSDeformAttnTransformerEncoderLayer(
              (self_attn): MSDeformAttn(
                (sampling_offsets): Linear(in_features=256, out_features=192, bias=True)
                (attention_weights): Linear(in_features=256, out_features=96, bias=True)
                (value_proj): Linear(in_features=256, out_features=256, bias=True)
                (output_proj): Linear(in_features=256, out_features=256, bias=True)
              )
              (dropout1): Dropout(p=0.0, inplace=False)
              (norm1): LayerNorm((256,), eps=1e-05, elementwise_affine=True)
              (linear1): Linear(in_features=256, out_features=1024, bias=True)
              (dropout2): Dropout(p=0.0, inplace=False)
              (linear2): Linear(in_features=1024, out_features=256, bias=True)
              (dropout3): Dropout(p=0.0, inplace=False)
              (norm2): LayerNorm((256,), eps=1e-05, elementwise_affine=True)
            )
          )
        )
      )
      (pe_layer): Positional encoding PositionEmbeddingSine
          num_pos_feats: 128
          temperature: 10000
          normalize: True
          scale: 6.283185307179586
      (mask_features): Conv2d(256, 256, kernel_size=(1, 1), stride=(1, 1))
      (adapter_1): Conv2d(
        192, 256, kernel_size=(1, 1), stride=(1, 1), bias=False
        (norm): GroupNorm(32, 256, eps=1e-05, affine=True)
      )
      (layer_1): Conv2d(
        256, 256, kernel_size=(3, 3), stride=(1, 1), padding=(1, 1), bias=False
        (norm): GroupNorm(32, 256, eps=1e-05, affine=True)
      )
    )
    (predictor): MultiScaleMaskedTransformerDecoder(
      (pe_layer): Positional encoding PositionEmbeddingSine
          num_pos_feats: 128
          temperature: 10000
          normalize: True
          scale: 6.283185307179586
      (transformer_self_attention_layers): ModuleList(
        (0-8): 9 x SelfAttentionLayer(
          (self_attn): MultiheadAttention(
            (out_proj): NonDynamicallyQuantizableLinear(in_features=256, out_features=256, bias=True)
          )
          (norm): LayerNorm((256,), eps=1e-05, elementwise_affine=True)
          (dropout): Dropout(p=0.0, inplace=False)
        )
      )
      (transformer_cross_attention_layers): ModuleList(
        (0-8): 9 x CrossAttentionLayer(
          (multihead_attn): MultiheadAttention(
            (out_proj): NonDynamicallyQuantizableLinear(in_features=256, out_features=256, bias=True)
          )
          (norm): LayerNorm((256,), eps=1e-05, elementwise_affine=True)
          (dropout): Dropout(p=0.0, inplace=False)
        )
      )
      (transformer_ffn_layers): ModuleList(
        (0-8): 9 x FFNLayer(
          (linear1): Linear(in_features=256, out_features=2048, bias=True)
          (dropout): Dropout(p=0.0, inplace=False)
          (linear2): Linear(in_features=2048, out_features=256, bias=True)
          (norm): LayerNorm((256,), eps=1e-05, elementwise_affine=True)
        )
      )
      (decoder_norm): LayerNorm((256,), eps=1e-05, elementwise_affine=True)
      (query_feat): Embedding(250, 256)
      (query_embed): Embedding(250, 256)
      (level_embed): Embedding(3, 256)
      (input_proj): ModuleList(
        (0-2): 3 x Sequential()
      )
      (mask_embed): MLP(
        (layers): ModuleList(
          (0-2): 3 x Linear(in_features=256, out_features=256, bias=True)
        )
      )
      (mask_pooling): MaskPooling()
      (_mask_pooling_proj): Sequential(
        (0): LayerNorm((256,), eps=1e-05, elementwise_affine=True)
        (1): Linear(in_features=256, out_features=256, bias=True)
      )
      (class_embed): MLP(
        (layers): ModuleList(
          (0-1): 2 x Linear(in_features=256, out_features=256, bias=True)
          (2): Linear(in_features=256, out_features=768, bias=True)
        )
      )
    )
  )
  (criterion): Criterion SetCriterion
      matcher: Matcher HungarianMatcher
          cost_class: 2.0
          cost_mask: 5.0
          cost_dice: 5.0
      losses: ['labels', 'masks']
      weight_dict: {'loss_ce': 2.0, 'loss_mask': 5.0, 'loss_dice': 5.0, 'loss_ce_0': 2.0, 'loss_mask_0': 5.0, 'loss_dice_0': 5.0, 'loss_ce
…
